results/main/GeneLasso/M--GeneLasso__H--0.0001__Trn--Microarray__Tst--Microarray__S--Val__GS--GPL96-570/betas__ModelInds--172.npy (npy, 93552 bytes, 1 tensors)

array f8 [11678]
0	0xbf77e48d2042ca60	-0.005833197854530597
1	0x0000000000000000	0.0
2	0x3f49a5dea5d23454	0.000782712664333505
3	0x0000000000000000	0.0
4	0x3f41e2cad952a863	0.000545834586451532
5	0x8000000000000000	-0.0
6	0x0000000000000000	0.0
7	0xbf73f29cd3c581db	-0.004870045286537973
8	0x3f338da79f67fe37	0.0002983602747974353
9	0x0000000000000000	0.0
10	0x3f800e124bf00257	0.007839339201383284
11	0x8000000000000000	-0.0
12	0x3f447bb25a7f4b85	0.0006250973574374186
13	0x0000000000000000	0.0
14	0x3f32dc919e458eb1	0.0002878051293661961
15	0x3f2b464f3cdca24d	0.00020808903939807875
16	0x0000000000000000	0.0
17	0xbf4aa713882d7220	-0.00081337407787491
18	0xbf661b80bce76d12	-0.0026986612713081415
19	0x3f82c0cba08464f1	0.009156790577025538
20	0xbf71c4e96ca80a86	-0.004338180364814042
21	0x8000000000000000	-0.0
22	0x0000000000000000	0.0
23	0xbf5cf519ad9df715	-0.0017674208415594018
24	0xbf77ffd3b114b65f	-0.0058592099388029275
25	0x3f602e1ed3421ebd	0.0019751169257381227
26	0x3f27d48590b84e8a	0.00018180971561375755
27	0x3f3400aa50aeb69d	0.00030521543583970375
28	0x3f6dc0b6320a9ba6	0.0036319311623915383
29	0x0000000000000000	0.0
30	0x8000000000000000	-0.0
31	0x8000000000000000	-0.0
32	0x3f90e0a1914a73b4	0.01648189973149146
33	0x0000000000000000	0.0
34	0xbf79af4aed5fc4e3	-0.0062706877561009315
35	0x3f7eab5313d756cb	0.007487606545927237
36	0x3f7c1747ced039ef	0.0068581395144193666
37	0x8000000000000000	-0.0
38	0x3f69f191ce70bb05	0.003166947153224855
39	0x3f70e87ad2780466	0.004127959989547047
40	0xbf518f2176a2ace1	-0.0010717226782997402
41	0xbf4b1b24c07db68b	-0.0008272103741384247
42	0x8000000000000000	-0.0
43	0x3f687c5138da2908	0.0029889665955283896
44	0xbf56198610a6f7b2	-0.0013488587597829502
45	0x0000000000000000	0.0
46	0x0000000000000000	0.0
47	0xbf75a6c2ecf5175a	-0.005285989216025156
48	0xbf5fe1d40665c187	-0.0019459314877075821
49	0xbf7361c83ba33170	-0.004731924209590552
50	0xbefdc9d854f1bbc7	-2.8408486567984227e-05
51	0x8000000000000000	-0.0
52	0x0000000000000000	0.0
53	0x8000000000000000	-0.0
54	0x3f5ef13b0c38c456	0.0018885685575578313
55	0x8000000000000000	-0.0
56	0x3f776a9c1fadabe0	0.00571690545880707
57	0xbf7bfdf81279154c	-0.0068340006178620565
58	0x3f5d95992b162b67	0.0018056865486381858
59	0x8000000000000000	-0.0
60	0x3f5f056ff19e1c64	0.0018933861924510737
61	0x3f626fa419f73047	0.002250500212289483
62	0x8000000000000000	-0.0
63	0x0000000000000000	0.0
64	0x3f73eb6d6d5af2a2	0.004863192987326544
65	0xbf50d0dc83116b90	-0.0010263589322423196
66	0xbf6af5729510d557	-0.0032908666549028953
67	0xbf4cc4e8c052ea0b	-0.000877965591505715
68	0xbf42a04fd1a1fc3c	-0.0005684270611395824
69	0x3f6600d3ed83990a	0.002685941621268677
70	0xbf72b926db751fd9	-0.004571105753093684
71	0xbf72688ba7b05a0d	-0.004494233634452016
72	0x3f6d4812de8ee303	0.0035744064848269876
73	0x3f85a6e12c54b7ad	0.010572203793880986
74	0xbf71c96825f1a1a5	-0.004342467144944716
75	0x3f552aa6e0f31957	0.001291907279481549
76	0xbf5a44fbe561e21f	-0.0016033611223332867
77	0xbf744fe8f889649e	-0.0049590206550302034
78	0xbf7237fa940106ca	-0.004447916813718764
79	0xbf5765f27614a653	-0.001428114679877264
80	0x0000000000000000	0.0
81	0x8000000000000000	-0.0
82	0x3f739997310f0154	0.004785147278142016
83	0x3f39504f061f59e9	0.00038625649733373
84	0xbf6b5b4faf9b330a	-0.0033394390455668875
85	0xbf304a6682dc1573	-0.0002485752364552375
86	0x3f74a43e3a041ab1	0.005039446900133513
87	0x0000000000000000	0.0
88	0x3f3ee854440b9438	0.00047161156912373407
89	0xbf0ad553179a2826	-5.118045642145434e-05
90	0xbf625bea8dd8b4a3	-0.002241094697430572
91	0x3f24e90a105584fb	0.00015953300332242196
92	0x3f8270c029275599	0.009004117256078458
93	0xbf64343147761df1	-0.0024662935717889513
94	0xbf5fb803490374f0	-0.0019359619218939882
95	0x8000000000000000	-0.0
96	0x0000000000000000	0.0
97	0x0000000000000000	0.0
98	0x8000000000000000	-0.0
99	0x3f79169afc2d8eb2	0.006125073824339177
100	0xbf7b3448cf4a3f4b	-0.006641659176821533
101	0x0000000000000000	0.0
102	0xbf63b61d45db6591	-0.0024061748252790023
103	0x8000000000000000	-0.0
104	0x8000000000000000	-0.0
105	0x3f6f9f22c9240ff7	0.003860061589081805
106	0x3f4f1a249d3c1047	0.0009491614132177772
107	0xbf73447058e5590b	-0.004703940254634507
108	0x8000000000000000	-0.0
109	0xbf20e973b047f02f	-0.0001290277215416648
110	0x0000000000000000	0.0
111	0xbf7768fdf6ff7322	-0.0057153625966435435
112	0xbf63f2b93db5d052	-0.002435075568138636
113	0xbf82b8b12879c178	-0.009141334579198399
114	0xbf585c159e6fb729	-0.0014867983934396345
115	0x8000000000000000	-0.0
116	0x3f71a3404769b590	0.0043060789963481755
117	0xbf867b02ee05773f	-0.01097681321033017
118	0x0000000000000000	0.0
119	0x8000000000000000	-0.0
120	0xbf707d52e2bae08e	-0.004025768062710834
121	0x3f6d1bfc282633d2	0.0035533833444731733
122	0x3f763b0bf27d590c	0.005427405041549937
123	0x3f31cb61f8f8c99d	0.0002715219679628957
124	0x3f329773567deeab	0.0002836853586740499
125	0x3f6fe6324522bc42	0.0038939458691724946
126	0x8000000000000000	-0.0
127	0x3f5650820b6e280d	0.0013619680373460092
128	0x3f6105048a897f62	0.00207758795686168
129	0xbf7682354cb36899	-0.005495269967662386
130	0x8000000000000000	-0.0
131	0x3f3ac2fab434ee43	0.0004083501882694332
132	0x3f6716f01ba65c4d	0.002818554840995391
133	0x3f79982802c8ba03	0.006248623173219506
134	0x3f53acb997bc2af4	0.0012008488110405975
135	0x3f42ecca0f86b335	0.0005775438904059629
136	0x3f797ee7be98008d	0.0062245419044303476
137	0xbf61fba4725d1347	-0.0021951877451179855
138	0xbf8b0b592177d54a	-0.013205238660683922
139	0x0000000000000000	0.0
140	0x3f43fb302b856b74	0.0006097779469585855
141	0x3f45de927a6ac715	0.0006674018121286285
142	0x3f68df9a32b3f7b4	0.0030363094025451457
143	0xbf78876ff72c7055	-0.005988538136787088
144	0xbf3bad7de02b9445	-0.00042232821594573685
145	0x3f72eb5190670f80	0.004618948564203751
146	0x3f6c5bb9af1d1063	0.0034617067948677234
147	0x3f62aa46f26bb41e	0.00227846009089784
148	0x0000000000000000	0.0
149	0x3f05d7f239dac2c5	4.166324582167072e-05
150	0x8000000000000000	-0.0
151	0x0000000000000000	0.0
152	0x3f6816d626223847	0.0029405768010013797
153	0x8000000000000000	-0.0
154	0x3f72dcfd7c08755b	0.00460528390297318
155	0x3f7c6256530f64d3	0.006929719166657483
156	0xbf618cb437328fdb	-0.0021422881923900245
157	0x3f7ce1268294eb7a	0.00705065768243684
158	0x3f66e2e990b2b338	0.002793747121890535
159	0xbf704882f96c7630	-0.003975402468112274
160	0x8000000000000000	-0.0
161	0xbf7ae2dfcca7975d	-0.0065640203633615364
162	0xbf76e4195fae9c1e	-0.005588626018755453
163	0x3f3c99a9dc354506	0.0004364051530574984
164	0x3f76200edcd92f5c	0.0054016666959560665
165	0xbf779e97cdf60325	-0.005766480432954056
166	0xbf29c281f917e85c	-0.00019653164467553746
167	0x3f80d8e5baee0322	0.00822619892801552
168	0xbf83bc77eab265af	-0.009636818742637525
169	0xbf76e4b151f49fc8	-0.005589192063133859
170	0x8000000000000000	-0.0
171	0x8000000000000000	-0.0
172	0x8000000000000000	-0.0
173	0x0000000000000000	0.0
174	0xbf76c1f101335a3f	-0.005556050705499304
175	0x3f8bfa541b566d10	0.01366105755260219
176	0x0000000000000000	0.0
177	0xbf5d1699de4aa965	-0.0017754080410364523
178	0x3f74f62c7b3b604e	0.0051175820878697886
179	0x0000000000000000	0.0
180	0x3f8834f85272f097	0.011819782272475527
181	0x3f69b1cf58a40249	0.003136544201993528
182	0x3f5010df42fb0a25	0.0009805851258738532
183	0xbf2aef8eacd3eab4	-0.00020550362243184283
184	0xbf58f7549590300c	-0.0015238119142422261
185	0xbf71bb33c52c3ad0	-0.00432892058121466
186	0xbf75a23180fb81f3	-0.005281632780424139
187	0x3f553b4998435b36	0.0012958735178949083
188	0x3f74d1b47c7992cc	0.005082802795730767
189	0xbf58ada3d10b9eb5	-0.0015062427302669327
190	0x8000000000000000	-0.0
191	0x3f7ca793af130528	0.0069957512761800525
192	0x0000000000000000	0.0
193	0x3fa38621c280f12a	0.03813271998703478
194	0xbf87570520ec0e41	-0.01139644629211667
195	0xbf8ce81aeaa11670	-0.014114580426517892
196	0xbf67c4d773f29ae1	-0.0029014785828452715
197	0xbf6a7e248dbb0ede	-0.0032339776933855
198	0x0000000000000000	0.0
199	0xbf7130f6a6529bf4	-0.0041970858339146384
200	0xbf63a558b36f6416	-0.0023981792869389824
201	0x0000000000000000	0.0
202	0x3f3f3bad04143cd1	0.00047657941839047724
203	0x3f834cfe9fbe8ceb	0.00942419934273749
204	0x3f506d3c0118481e	0.0010026060084595899
205	0x8000000000000000	-0.0
206	0x8000000000000000	-0.0
207	0x3f77a3954d984faf	0.005771239485984055
208	0x3f6a41a9a7e4d880	0.003205138548902531
209	0xbf611225ffc30915	-0.002083849160130611
210	0xbf6783368d992d1e	-0.002870184468326222
211	0xbf7af1e3b3c6f448	-0.006578340017253721
212	0x3f6d9d4afb3148be	0.0036150421597450346
213	0xbf7b08c40cb82a47	-0.006600156611521308
214	0xbf43fb2975067d6a	-0.0006097748210328994
215	0x3f6cc26a27fee3ef	0.0035106728900839916
216	0xbf5fabf8ebe49408	-0.0019330912469481838
217	0x3f4969b16a65b8e2	0.000775539044111342
218	0x0000000000000000	0.0
219	0x0000000000000000	0.0
220	0x3f6681cfe35ee53a	0.0027474460902935623
221	0xbf314cfcc7c6f66a	-0.0002639882220839331
222	0x3f39d33945d28ba9	0.00039405964145993816
223	0x3f6255a2bf605b43	0.0022380999244079615
224	0x0000000000000000	0.0
225	0x8000000000000000	-0.0
226	0x0000000000000000	0.0
227	0x8000000000000000	-0.0
228	0x3f66b01fbd43f46f	0.0027695293339307574
229	0xbf6705d637d556d3	-0.0028104003855940834
230	0x0000000000000000	0.0
231	0x3f73665ea04959f8	0.004736299165037476
232	0x8000000000000000	-0.0
233	0x3f7078527c8d1ef0	0.004020998204232504
234	0x3f71db9b145b6e83	0.0043598230165248246
235	0x3f57bd96a2a503f2	0.0014490099952839644
236	0xbf6d60f9cd33de4b	-0.003586280721375156
237	0x3f5e570ed2bb6dc3	0.0018518109090369529
238	0x0000000000000000	0.0
239	0x3f623f104aeab9eb	0.002227336713381369
240	0x3f7c6f2daca22a20	0.006941965499331931
241	0x0000000000000000	0.0
242	0xbf3bc888e93e3ea4	-0.0004239401107435181
243	0x3f5372d2eadbb09b	0.001187044118917269
244	0x8000000000000000	-0.0
245	0x8000000000000000	-0.0
246	0xbf8312721eaf0e02	-0.009312526284595005
247	0x3f676d12ac1d0123	0.002859627217645892
248	0xbf644c00a951c024	-0.0024776471059837647
249	0x3f60e1fa04d29ef5	0.002060879056973048
250	0x8000000000000000	-0.0
251	0x3f800eeae90812ee	0.007840953098829453
252	0x3f6243f12cbf038d	0.0022296629376516498
253	0xbf5714689073dbbc	-0.0014086743483951855
254	0xbf58cf0958f1771d	-0.001514205101350758
255	0x3f62ce37201fbbd9	0.0022955967588056234
