results/main/GeneLasso/M--GeneLasso__H--0.0001__Trn--Microarray__Tst--Microarray__S--Val__GS--GPL96-570/betas__ModelInds--104.npy (npy, 93552 bytes, 1 tensors)

array f8 [11678]
0	0xbf6480fae72e56f2	-0.002502908749600568
1	0xbf76fd795674e7d8	-0.005612825370286921
2	0xbf5e5ddb26d45b5e	-0.0018534317162612539
3	0xbf606a1151b16d9d	-0.002003701998132447
4	0x3f547592fafc04e5	0.0012487349849268855
5	0x3f6919d866f2d6f2	0.003064081821856906
6	0xbf8113be7af5ecda	-0.008338440062962627
7	0x3f648e8476dd683b	0.0025093638604803104
8	0x3f6621ff88ec0044	0.0027017584719715455
9	0xbf73d68111471064	-0.00484323899258152
10	0x3f56ae89e5c8ceb9	0.0013843866974071874
11	0xbf652c4fc7b5a6c7	-0.0025846059995061374
12	0x3f6592c85a0d1fea	0.002633467971836713
13	0x8000000000000000	-0.0
14	0xbf44ecd88b600868	-0.0006385857911939243
15	0x0000000000000000	0.0
16	0x8000000000000000	-0.0
17	0xbf4fc16cef9735f3	-0.0009691030419902144
18	0x3f703f20b91094fb	0.003966453384270037
19	0xbf80d9a6897e7b19	-0.008227635451303382
20	0x3f727da1d24911a0	0.004514343371344515
21	0x3f5196b97300e0b6	0.001073533156171575
22	0x8000000000000000	-0.0
23	0xbf5960ad97fcae8d	-0.0015489287615747833
24	0x3f5e291c16dc3a86	0.0018408560094404238
25	0x0000000000000000	0.0
26	0xbf7702f8edcaad04	-0.005618069055951528
27	0x8000000000000000	-0.0
28	0x8000000000000000	-0.0
29	0x3f662095e3248bfc	0.0027010848508708368
30	0xbf67499550f06b8c	-0.002842704423085823
31	0x3f8559b039bb51b8	0.010424973260719436
32	0xbf7c75de0be9a816	-0.0069483445828186965
33	0x0000000000000000	0.0
34	0x3f5f7fb4a03338bf	0.001922537224163842
35	0x3f70f0f2adb14342	0.004136035883747282
36	0x0000000000000000	0.0
37	0x3f683fc0926734fb	0.002960086934058579
38	0x3f632ac8b5081dd3	0.0023397369443533904
39	0x0000000000000000	0.0
40	0x8000000000000000	-0.0
41	0x0000000000000000	0.0
42	0x3f7cbceac989071e	0.007016102922138305
43	0xbf82d9ea58a2d2d5	-0.009204703168827969
44	0xbf57203bcfd3d8dc	-0.0014114936923852938
45	0xbf7c771628b10c86	-0.006949507292179585
46	0x8000000000000000	-0.0
47	0xbf84869b6e3b418b	-0.010022367764947379
48	0x8000000000000000	-0.0
49	0xbf7253c57c9fdb30	-0.004474421913974777
50	0xbf70873b260ed766	-0.004035216378658868
51	0xbf68ee526c4c883c	-0.003043328268533178
52	0x8000000000000000	-0.0
53	0xbf63e4585970bee9	-0.0024282193731080992
54	0xbf605ae79984f9a3	-0.0019964717322686495
55	0x8000000000000000	-0.0
56	0xbf72d653ad1a4bd4	-0.0045989292717818105
57	0xbf210f298e61e8f4	-0.0001301515796433072
58	0x0000000000000000	0.0
59	0x8000000000000000	-0.0
60	0x0000000000000000	0.0
61	0xbf7f78d30abc2b44	-0.007683586485437047
62	0x8000000000000000	-0.0
63	0xbf42b524379cb23b	-0.0005709101526228452
64	0xbf73e7699fbb24b0	-0.004859364121963569
65	0xbf7d2cbdf4df6848	-0.0071227474381548375
66	0x3f66d7627272f305	0.00278825023596452
67	0x3f5a340e79ec3e4b	0.0015993253106819812
68	0x3f494025ce98f36d	0.0007705864529224789
69	0xbf694429a8768e7a	-0.00308426033343939
70	0xbf4a52df775b20ac	-0.0008033362525674734
71	0xbf60d02a810221b4	-0.002052386298661635
72	0x8000000000000000	-0.0
73	0x3f5d0c7fabd13ced	0.0017729994572340216
74	0x0000000000000000	0.0
75	0xbf5af9b0aca534dd	-0.0016464448295495017
76	0x8000000000000000	-0.0
77	0x3f7a3eeb2dfccb18	0.006407660170043149
78	0x8000000000000000	-0.0
79	0xbf5cb7069cf8a75d	-0.00175262113396931
80	0x3f62366e6f0743c5	0.0022232205303471552
81	0x3f601a8c7b3ad00d	0.0019657844330485176
82	0x3f5b89497a0f81e7	0.0016806809946886493
83	0x3f4d7c57e941c1b8	0.0008998326543530532
84	0xbf70244aa58aa359	-0.003940860355819386
85	0x3f7032ad77a61a95	0.0039545799321617685
86	0x3f601e7ced6d23c9	0.0019676628102484922
87	0x3f59097e7805c234	0.0015281424567456072
88	0x3f680f2bf7a9e74c	0.0029369219531049425
89	0x3f33eabe98e3a7c0	0.0003039088559392243
90	0xbf426aa7062c7412	-0.00056203036760716
91	0x3f49df9bf3882e57	0.0007895957451764063
92	0x3f6d381756a3c4d3	0.0035667854145847526
93	0x3f874e2a1c905843	0.0113795556990618
94	0x0000000000000000	0.0
95	0x8000000000000000	-0.0
96	0xbf7ed6da13767f22	-0.007529117450218144
97	0xbf671165ff43c163	-0.002815913403644442
98	0xbf760476e32fffa9	-0.005375351337534009
99	0x8000000000000000	-0.0
100	0x3f6c00630d0d057f	0.0034181532468273153
101	0xbf769a5db933e872	-0.005518308741779264
102	0x3f6f20e5c6d9bc3e	0.0037998664691296915
103	0xbf634414ad903d05	-0.002351799380000965
104	0x0000000000000000	0.0
105	0x3f60001ece3dbb85	0.0019531823799562886
106	0x3f6d82bc511281a6	0.003602378660233013
107	0x0000000000000000	0.0
108	0xbf526da407318c33	-0.0011247732006942734
109	0xbf5e6d9935eabc1d	-0.0018571850011246456
110	0x3f8bade467079c47	0.013515266794412407
111	0xbf6c586b6d07a29d	-0.0034601305162492283
112	0x3f75568cd74dae9e	0.005209493789930212
113	0x3f791ccf37e6f001	0.006130990454433772
114	0x3f75318baa575732	0.00517420346064572
115	0x3f823b1d6b519d4b	0.008901815259561593
116	0x0000000000000000	0.0
117	0x0000000000000000	0.0
118	0xbf6a8a3891083a02	-0.003239737016208056
119	0xbf7206b8ef69a0ad	-0.00440094223322533
120	0x3f5a7f444a9f58db	0.0016172568234558624
121	0xbf68be8463a65926	-0.0030205331542659973
122	0x0000000000000000	0.0
123	0xbf4e24c21ef06ec2	-0.0009199092727416246
124	0xbf7f8a7fc9be3e3c	-0.0077004424782809965
125	0x3f7a71f05ed83b3e	0.0064563168975969015
126	0x3f52da3cb53ead97	0.0011506646014634908
127	0x3f7d7a137a0fed9c	0.007196498948356302
128	0x3f6b77b766c3a61e	0.003352983671096834
129	0x8000000000000000	-0.0
130	0xbf76f08c14e0db4c	-0.005600497430399209
131	0xbf47fc362a4bacec	-0.000731970260486573
132	0x8000000000000000	-0.0
133	0xbf50e32561fe3bfc	-0.0010307183328881466
134	0x3f9436fead875561	0.019741038647983603
135	0x3f80d3000d0de366	0.008214950941452148
136	0x0000000000000000	0.0
137	0xbf86fe5e2fc9717c	-0.011227355798091969
138	0xbf46a936ea7af378	-0.0006915586609107368
139	0xbf5024e655f600ae	-0.0009853600857639244
140	0x3f663f066e61d05f	0.0027155995949730695
141	0xbf6f1cf3c1ca58a0	-0.003797985160711795
142	0x8000000000000000	-0.0
143	0xbf79ac858ade93f7	-0.006268045091847966
144	0x3f877fc270fba5eb	0.01147415072724108
145	0x8000000000000000	-0.0
146	0x3f54b4dbdfb124f2	0.0012638232426687682
147	0xbf72336446776788	-0.004443542194587986
148	0xbf7e9345cba4f0bf	-0.007464668882956881
149	0x8000000000000000	-0.0
150	0x0000000000000000	0.0
151	0xbf7c11a9ff2bf7fc	-0.00685278325067706
152	0x3f66d097070005ba	0.002785010314256123
153	0xbf32f91213ec1b5d	-0.00028950396874487754
154	0x8000000000000000	-0.0
155	0x8000000000000000	-0.0
156	0x3f7952e5eef09bc8	0.0061825734874564955
157	0x8000000000000000	-0.0
158	0x8000000000000000	-0.0
159	0x0000000000000000	0.0
160	0x3f6fd21e8b36cfd9	0.0038843723829930896
161	0xbf608b1f1165d933	-0.0020194632335758466
162	0xbf619e9cfd9e98c4	-0.0021508280014642406
163	0x3f63243ffb562fa2	0.0023366212505546305
164	0x3f35f4aac37e3b7e	0.00033501786264705086
165	0xbf5a4287a1da20d7	-0.0016027760060826535
166	0x3f61e8128c1fa3d5	0.002185856080349139
167	0xbf86f4989084a53b	-0.011208717260688608
168	0x3f517a75d0d60bb3	0.0010667944473829849
169	0x3f7867a02027f335	0.005958199968969781
170	0x3f5816cfe9188110	0.0014702825905104668
171	0xbf6a422b6cc435dd	-0.0032053802625628806
172	0x3f6e2ae38d996003	0.0036825603863626113
173	0x0000000000000000	0.0
174	0xbf3377b910c69d2b	-0.00029705303384238113
175	0x3f56a8e6fd90869a	0.0013830428854436972
176	0x0000000000000000	0.0
177	0x3f732ffdb5dca250	0.004684439712754854
178	0x8000000000000000	-0.0
179	0x3f50233e54cc79d1	0.0009849652007641772
180	0xbf8d3b37505fd27b	-0.014273101940468927
181	0xbf5abf32f96c27dd	-0.0016324994846308373
182	0x3f671b8d4bc91fbf	0.002820754975150635
183	0xbf7725d8abccb1df	-0.005651327487424556
184	0x3f75741114267d75	0.00523764296886441
185	0x8000000000000000	-0.0
186	0xbf4f06b6f6803050	-0.0009468453763488236
187	0x0000000000000000	0.0
188	0xbf80b79b0fe6d572	-0.008162700102597429
189	0xbf5f60a75dc4a893	-0.0019151338993404251
190	0x3f7621a115b2cbf5	0.0054031650899330945
191	0xbf781373f7750a4b	-0.005877926821372069
192	0xbf6120f857c04570	-0.002090916676032499
193	0x3f51bc132e5d9ea6	0.0010824382129274528
194	0xbf8e949ec46f24b6	-0.014931908006376875
195	0x0000000000000000	0.0
196	0xbf57e7acf04abf5c	-0.0014590443471824343
197	0x8000000000000000	-0.0
198	0x3f75726912d4d64f	0.005236063426584516
199	0x3f80e1319d945bca	0.008242023106999858
200	0x3f477de7ae91c718	0.0007169133433661849
201	0x3f6446e4d8e06f6f	0.0024752111121539226
202	0xbf6e787dd09e77e8	-0.003719564182531155
203	0xbf76be836551cea5	-0.005552781357539925
204	0x8000000000000000	-0.0
205	0x3f711a0d5636c90f	0.004175235840579341
206	0xbf6832d8a92064e9	-0.002953932919819925
207	0x0000000000000000	0.0
208	0x3f73b9fd797c6615	0.0048160458898336604
209	0x8000000000000000	-0.0
210	0x8000000000000000	-0.0
211	0x0000000000000000	0.0
212	0xbf645e9f087b471b	-0.002486525165161247
213	0xbf5adf31f2b3c35a	-0.001640127923391263
214	0x8000000000000000	-0.0
215	0xbf50a6b0cd95d3ea	-0.001016304644818828
216	0x3f46b70a706b0eb5	0.0006932068798381682
217	0x8000000000000000	-0.0
218	0x3f77f003fc23cd3e	0.0058441310559261255
219	0x8000000000000000	-0.0
220	0x0000000000000000	0.0
221	0x3f7d23b5d4526eff	0.007114134093310075
222	0xbf5796ebe471a55b	-0.0014397910724944427
223	0x3f5b1312f5cc7eba	0.0016524968297701296
224	0x3f5e3744b80487b7	0.0018442317087381374
225	0x3f4391c298102650	0.0005972099462507405
226	0x3f6a65d0270d198f	0.0032223763923042224
227	0xbf4dee61b4d861cd	-0.0009134270746385343
228	0x8000000000000000	-0.0
229	0xbf7fd6ba15d73c99	-0.007773138900531462
230	0x3fb05ad92cd93bb6	0.06388623566566207
231	0x3f2aa7c8caf3c74f	0.00020336462100761308
232	0x3f72295d323417ce	0.004433979079527318
233	0x3f60f9c7363c5b84	0.002072228513394449
234	0x3f5a704074fe8041	0.0016136769736263686
235	0xbf6bb9fe354e7359	-0.003384586811490936
236	0xbf57c71ed3900812	-0.0014512826003287888
237	0xbf653c4acdfa9152	-0.0025922261264261027
238	0x3f66927f5e5d711c	0.002755402342627401
239	0x3f74752148040c0e	0.004994516377567327
240	0x8000000000000000	-0.0
241	0x0000000000000000	0.0
242	0xbf5294bddd6f7451	-0.0011340955877508117
243	0x0000000000000000	0.0
244	0x3f60cda7bbac1ca3	0.0020511890446673494
245	0x0000000000000000	0.0
246	0xbf635c06e437cb7f	-0.0023632177924297055
247	0x3f51576f514ce426	0.0010584437452065914
248	0xbf62d564d1647fb3	-0.0022990197277436785
249	0xbf6a4a0f205128b2	-0.00320914224952159
250	0x3f4d22bab042f961	0.0008891498150871807
251	0x3f706383f368f933	0.004001155312435767
252	0x3f7b0aebda003f0f	0.006602212233715723
253	0x3f2933390475886f	0.00019226141942413645
254	0x3f74b9226e603d65	0.00505937051458658
255	0x0000000000000000	0.0
