results/main/GeneLasso/M--GeneLasso__H--0.0001__Trn--Microarray__Tst--Microarray__S--Val__GS--GPL96-570/betas__ModelInds--28.npy (npy, 93552 bytes, 1 tensors)

array f8 [11678]
0	0xbfa900e7f77485bb	-0.048835038144044295
1	0xbf9037543c76dcd9	-0.01583606356663556
2	0xbf74d22bdd70b900	-0.005083247516308953
3	0x3f87584f550820e2	0.011398906500304343
4	0xbf91fb7ac3a1e652	-0.01756088084264313
5	0xbf662a030d5d4b26	-0.00270557972081899
6	0x3fa5713959b1b8f1	0.041879455756189794
7	0x3f9adab1df0d0e0c	0.02622487949271428
8	0xbf79d3f0b01a0ddb	-0.006305637538051435
9	0xbf864b0dc6180b0a	-0.010885341270300514
10	0xbf90c6fdd145d407	-0.016384092233654026
11	0xbf76b62a4ff27efb	-0.005544820101164079
12	0x8000000000000000	-0.0
13	0xbf70c36ea0fb425d	-0.00409262861622092
14	0x3f8a173d87829f8d	0.012739639947838355
15	0xbfa263f738176dc7	-0.035918927762135726
16	0x3f92dd0856300aca	0.018421297321775033
17	0xbf7a9979248c1b8d	-0.0064940197123694145
18	0xbf983e53687f6867	-0.02367525410941376
19	0xbf511f15cf5f21e2	-0.0010450089443897405
20	0x3f7376301d0887b1	0.004751384680760682
21	0xbf67646a588e3b8f	-0.002855498988032896
22	0x3f921a9ba6efeee1	0.017679626525917484
23	0x0000000000000000	0.0
24	0x3f937ef4c20ed10d	0.019038986534455172
25	0xbf746fbd813271fc	-0.004989376309052048
26	0x3f80ab0ab3b3b1d8	0.008138736352031481
27	0xbf85f87e829deb83	-0.010727871285544094
28	0x3f9371111fd06ca0	0.01898600346258361
29	0xbf47c34fbf9d4ab8	-0.0007251872441237017
30	0x3f869581166b0d5c	0.01102734422364076
31	0x3f86ac6800d10744	0.011071026348989606
32	0x3faffa2e99a5a0c9	0.0624556124265055
33	0xbf6bb7b5f86929c0	-0.0033834985836495857
34	0xbf8c773bdc86722b	-0.013899295489687344
35	0x3f837cdde2a006ca	0.009515508154439262
36	0x3f7d2241311a5f02	0.007112745910170084
37	0xbf66f8f1050a86ae	-0.0028042514243942973
38	0xbf791e24f3455522	-0.006132263504999432
39	0x0000000000000000	0.0
40	0x3f7335ab7be87bef	0.004689855441511333
41	0x3f5719d1a312c1b0	0.0014099642979027265
42	0x3f8aa9aa39888b8b	0.013018922692088505
43	0x3f9a07dba17e5bdb	0.025420600635324902
44	0xbf7f606e8f5923d1	-0.007660323977298726
45	0xbf9466b542108b47	-0.01992305007673714
46	0x3fb32518eef4b227	0.07478481134302993
47	0x0000000000000000	0.0
48	0x3f8adcd649e0b97f	0.013116525773594344
49	0xbf843084b19ddc22	-0.009858166380338377
50	0x3f7c2839caad88d4	0.006874299763554432
51	0x3f7557ebb63b1c75	0.005210800885556134
52	0xbfa06ed03cb7cefb	-0.03209543934999989
53	0x3f72b2b3a84700a1	0.004564954554041518
54	0xbfa189b37d2865a3	-0.03425370123677431
55	0x3f9128451b034dcb	0.016755180143105435
56	0x3f767e516af1b089	0.00549156001862284
57	0xbf637d7ab02e86ee	-0.0023791691068745157
58	0x0000000000000000	0.0
59	0xbf9e6cd319255451	-0.02971200791337864
60	0x0000000000000000	0.0
61	0x3f8f13b11230bec1	0.015174277656199721
62	0xbf6774cd24780403	-0.0028633124054526795
63	0x3f9654ead370ffc3	0.021808308749541327
64	0x3f67a65fc41ee0ad	0.0028869505340161834
65	0x3f9636d75289504d	0.021693577206250137
66	0x8000000000000000	-0.0
67	0x3f6a873782114e50	0.003238304533206983
68	0x3f5fd871638d638e	0.0019436938584560279
69	0xbf8575a42276eb54	-0.010478288938306747
70	0x3f6d01b024962fc8	0.003540843991407503
71	0xbf8963ae7c5e9a96	-0.012397158785302492
72	0xbf8f60e6cdbcc969	-0.015321543840035106
73	0xbf9661d162315f16	-0.021857520693031672
74	0x8000000000000000	-0.0
75	0x3f698ed1d6417df9	0.0031198595407173593
76	0xbf78628feb08b615	-0.005953371219715749
77	0x3f8158251392f172	0.008468904170847866
78	0x3f8d6f1de161aa13	0.014372094574544502
79	0xbf704d53d85e3d03	-0.003979995270028572
80	0x3f73a4fd8884fa3e	0.004796018947955503
81	0xbf80fd03a97cd202	-0.00829508648858113
82	0xbf9110fb7a9c4c1f	-0.01666634498458219
83	0xbf76bfea4605989d	-0.005554118281315604
84	0xbf751e52f195cb37	-0.005155872343823024
85	0x3f86fc4c3be1f00f	0.011223407342406259
86	0x3f93b16dba7cb575	0.019231523997566186
87	0xbf9bee5b4b24adeb	-0.02727644582880188
88	0xbf6a19ecb0ed2858	-0.003186189925519261
89	0x0000000000000000	0.0
90	0xbf8b592fb2938a96	-0.013353703152863699
91	0x3f4e7400c452dfca	0.0009293559784486702
92	0x8000000000000000	-0.0
93	0x3f965c0a23f2bb1b	0.021835478252508183
94	0xbfa19fa5421bfab1	-0.034421123809797456
95	0x3f920d1250b7292b	0.017627988983613434
96	0x8000000000000000	-0.0
97	0x3f919364921e6eac	0.01716382161940426
98	0xbfa2251c2ee6472c	-0.03543937752250623
99	0x3f8ef345f9bbc7ff	0.015112444576036664
100	0xbf8b45a9416b17b7	-0.013316461857708945
101	0xbf900a6d04fe710b	-0.01566477148991034
102	0x3f87cb04e795b452	0.011617697064787578
103	0x3f73e1a2e3f4e665	0.004853855410425466
104	0xbfa9a0cfb5392f24	-0.05005501830291184
105	0x0000000000000000	0.0
106	0xbf8a106582588e83	-0.012726586380330978
107	0x8000000000000000	-0.0
108	0x3f94fc2f271bcd4a	0.02049325634193381
109	0xbf86829579003193	-0.010991256480360067
110	0x3f87420206d9ee93	0.011356368860325794
111	0x3f85d0011569d17e	0.010650642839416188
112	0x0000000000000000	0.0
113	0x3fa4bff609394e93	0.040527046800574194
114	0x3f725241e60cf411	0.00447297803549153
115	0xbf97c38156912532	-0.02320673075545194
116	0x3f7d7fd8a448f451	0.007202001816549134
117	0xbf978b8ebf8fb1b4	-0.022993307535146904
118	0xbfa0ac0cc02009f7	-0.03256263585355506
119	0x3f70498b3b87ca8f	0.0039763869067309795
120	0x3f76a8bf8ac61acc	0.005532024585028505
121	0xbf74a490aece1577	-0.005039754073441364
122	0x3f961559df31ea1e	0.02156582283758201
123	0x3f963384a6131100	0.021680901180631373
124	0xbf957b95ed921c6d	-0.0209792543651272
125	0x3f6778539308a186	0.002864993315842837
126	0x3f814223620ceeab	0.008426929883732134
127	0xbfabb141d4a2becd	-0.05408673973704268
128	0x3fafc0dd69cb55ce	0.062018317379322604
129	0xbf99370c6334c0d8	-0.024624055438096842
130	0xbf538de703792872	-0.0011935001365537515
131	0x3f927bd092d4c7eb	0.01805044075189947
132	0x3f773e91c58eb93d	0.005674905224550661
133	0x3f662da5709c4e62	0.0027073127029185054
134	0x3fa2cd85fe33dc08	0.036724269180858526
135	0x3fac20aa2f94fc90	0.05493671255907728
136	0x3f8effb660178cda	0.0151361702036809
137	0xbf8ade324d748fa7	-0.013119118679760634
138	0x8000000000000000	-0.0
139	0xbf7f87d4f1e1bc33	-0.007697898689101246
140	0x3f813ca72ed6d0a1	0.00841646777812627
141	0x3f90a7dcac6d0fb0	0.016265342735337363
142	0x3f6b000e68c6d6c2	0.0032959252768830225
143	0xbf83848c2b2f1e0c	-0.009530158107636154
144	0x8000000000000000	-0.0
145	0x0000000000000000	0.0
146	0x3f90d52753d444e2	0.01643811654236494
147	0x0000000000000000	0.0
148	0xbf84b5580669927d	-0.010111510940256746
149	0x3fa20877cc0bc2f7	0.035220855386688336
150	0x0000000000000000	0.0
151	0xbfa59a39b070312e	-0.042192271030304304
152	0x3fb252046559361d	0.07156398271873639
153	0x3f870d62e8242038	0.011256001195320761
154	0xbf9455509831844b	-0.0198567002192969
155	0x3fa0fbdd27974f2f	0.03317156894959649
156	0xbf57aec27eac21d1	-0.0014454745639246212
157	0xbfa442f843a21044	-0.039573438888539175
158	0xbf94ef77209d77da	-0.02044473778311571
159	0xbf6fb15d36652e9d	-0.0038687534862783105
160	0xbf7788901f614e91	-0.0057454709804748575
161	0xbf9265c0cca54342	-0.017966282358716563
162	0x3f9f8351995ff6db	0.030774378763445447
163	0xbf956a95124d138e	-0.02091439174843717
164	0x3f9a32f5456b1e92	0.02558501468845848
165	0xbf8dd1f1043a19f4	-0.014560587827202355
166	0xbf3556884e6b6a13	-0.0003255923060529197
167	0xbf68ba5f70b041e6	-0.003018556982631748
168	0x0000000000000000	0.0
169	0x3f5e24cf9bb57a62	0.001839831106586275
170	0xbf6637c855607e36	-0.0027121460689299116
171	0x3f86f952af94338c	0.011217733367198134
172	0xbf66f39004823791	-0.0028016865581496704
173	0x3fa255b47b2f8082	0.03581012729387202
174	0x3f9350d066d3b206	0.018862968708093696
175	0xbf735d1c086e7035	-0.004727468017247151
176	0xbf9b22ca756e2477	-0.026499904076932226
177	0xbfab2e8d495befed	-0.05308953781602086
178	0xbf7c8e4d55517858	-0.006971647341826502
179	0xbfa3d108932aa2f1	-0.03870417400805149
180	0x3f7f1b1fea8c5a70	0.007594227478668544
181	0xbf91ac4580248378	-0.017258726068692692
182	0xbf8db39895b766c2	-0.014502708500845233
183	0xbf619e3efff29d2b	-0.0021506529297600405
184	0x3f9248eeed577508	0.017856343494590227
185	0x3f93e4b8be288dbe	0.01942719135889858
186	0x3f9f3e14d6de86fd	0.030510259260728912
187	0xbf5689dcfcf5d57a	-0.0013756425940674986
188	0xbfa0378d7fff6ee4	-0.03167383372757884
189	0x3f9b6020b4b085e6	0.02673388579217386
190	0xbf62821e9e4a5c55	-0.0022593114866356436
191	0xbf114855a2b57199	-6.592772176844951e-05
192	0x3f90a096c0a9719a	0.016237597951077022
193	0x8000000000000000	-0.0
194	0x3fa75a8bdc20fc1c	0.04561268865699494
195	0xbfa555a308085086	-0.041668982248809036
196	0xbf9d1c64a7359e2f	-0.028428623872427557
197	0x3f6a76f1eb2fdd0f	0.0032305455183593355
198	0x3f7eebc44982a34a	0.007549063440969681
199	0x3f96fddee461309a	0.02245281475943326
200	0xbf5e7c440da8522b	-0.001860681970929377
201	0xbf94051ad275806f	-0.01955072316684475
202	0xbfaeae179c193486	-0.059921968274104606
203	0x8000000000000000	-0.0
204	0xbf7e4ce2b09da481	-0.0073975424837523516
205	0x3f8a1c0e87171412	0.012748826501487929
206	0x3f486422cd0e2be5	0.0007443590094323686
207	0xbf8246d952a06301	-0.008924196085034366
208	0x3f7f9da28fd724ed	0.007718691832857544
209	0x3f43587e5774207c	0.0005903832342548788
210	0xbf914ab267f6eb1c	-0.016886508555880572
211	0x3f80c4caf56731db	0.008187852491482175
212	0xbf5a58175c8cd0ab	-0.001607916654575307
213	0x3fa52675cc81e21c	0.04130905267169657
214	0x3f6505f5174923cd	0.002566317265778362
215	0xbf8826eacd824e43	-0.011792978665005843
216	0x3f9813c0527f31b0	0.023512845072944877
217	0x3f73be8c2937ee4e	0.004820392135566799
218	0x3f9a966ce936a4c4	0.025964452490062198
219	0x3f7fa90d0860ade1	0.007729578885157435
220	0xbf8ae42c8659b262	-0.013130519723938142
221	0x3f80bb732a32f098	0.00817003223925665
222	0xbf7dfe4b054ebbee	-0.007322590875374664
223	0x3f6b844d2ab8dc80	0.003358984676903598
224	0xbf8e12dd8a9f6ffd	-0.014684420388157088
225	0xbf829188b34d06b6	-0.009066646549061513
226	0xbf8e3122911ea8f7	-0.014742155126289165
227	0xbf9bb79120c14b4a	-0.02706743967457762
228	0xbf8c2419a6ef90bf	-0.013740730673767463
229	0x3f86be25549ed6d6	0.011104861874496146
230	0x3fa3d835007ce84a	0.03875890379863785
231	0x3f9e55a6982d515c	0.02962360671820484
232	0xbf9a07e0452b2eed	-0.025420669767114146
233	0xbf785e4bfca28591	-0.005949303458835501
234	0xbf477fec8640d1e3	-0.0007171540169169068
235	0x3f93855be7a04104	0.01906341172440397
236	0x3f9d16ba5d3567cc	0.028407012881281266
237	0xbf8ea0ba2f2f94eb	-0.014955000462530474
238	0xbfb0845e62460c8d	-0.06451978587397118
239	0xbfaaa782315cfba3	-0.05205923893526367
240	0xbf6577fca9c68687	-0.002620690806183049
241	0x3fa3772bf28f7681	0.03801858268682868
242	0xbf90004ae99cfc44	-0.015626116284007688
243	0x3f9e299e73f33807	0.029455638720541823
244	0x3f73f8cafbda3a5e	0.004875939279044587
245	0xbf7fe48eba292eb1	-0.007786328819360187
246	0xbfa45c9b3eb05236	-0.039769030954776616
247	0x3f5a5923cf1aace6	0.0016081666657708437
248	0xbf97eb2ae2872bae	-0.023358030391857625
249	0xbf3805e33d8f627b	-0.00036656186926856794
250	0xbf54e7bf7b008d2a	-0.001275956146863442
251	0xbf72320483e475f8	-0.004442231786268895
252	0x3f83f728895fd9f6	0.00974876088365038
253	0x3f6c2fcf6113d29c	0.003440766370312721
254	0x8000000000000000	-0.0
255	0x3f55779bc1873af2	0.0013102551512137986
