results/main/GeneLasso/M--GeneLasso__H--0.0001__Trn--Microarray__Tst--Microarray__S--Val__GS--GPL96-570/betas__ModelInds--139.npy (npy, 93552 bytes, 1 tensors)

array f8 [11678]
0	0x3f97198008bcc036	0.022558212788851693
1	0x8000000000000000	-0.0
2	0xbf7d443ad74be248	-0.007145147178328211
3	0xbf775941a75e99c2	-0.005700355968576822
4	0xbf64f64e4abad6c0	-0.002558854020970752
5	0xbf834c4a478ff498	-0.009422855671795724
6	0xbf766a39cde90a82	-0.0054723985654755464
7	0x3f70de2cd4257740	0.0041181326981510336
8	0xbf80e58a841592eb	-0.008250314861194727
9	0x3f76ee15b511884b	0.005598149103294213
10	0xbf8bd0f83cf6add1	-0.013582171783887017
11	0xbf6097f727af28e2	-0.002025587772981217
12	0xbf60c5f5a09da225	-0.0020475194368610055
13	0xbf7e1c478a43fe26	-0.007351188138499809
14	0x3f6962d49a6d65ab	0.0030988838583822695
15	0xbf8dbb7670f480bd	-0.014517712900272145
16	0x8000000000000000	-0.0
17	0xbf6554f0186e1847	-0.002603978096376944
18	0xbf89ed335924779b	-0.012659455449973758
19	0x3f75fd69e7b20301	0.005368627254143333
20	0xbf75e1a86a77df77	-0.005342157244278548
21	0x3f8e0bc6aa61063d	0.0146708985086007
22	0xbf8cd63437296d28	-0.014080436643033226
23	0x8000000000000000	-0.0
24	0x3f81736644c64056	0.00852088830359336
25	0x3f72746138cf03ec	0.004505519650536787
26	0xbf855497d56b29d4	-0.01041525478412534
27	0x3f8fc30e194ebd2c	0.015508756778074138
28	0xbf912b667636236c	-0.016767121281677275
29	0x3f80ec0487bca463	0.008262668030129377
30	0xbf550ebf3360595f	-0.0012852542108752957
31	0x3f545e8bb8e21e15	0.001243244597874842
32	0x8000000000000000	-0.0
33	0x3f4b31c1459d730b	0.0008299058638204527
34	0x3f7323aa970cf9d9	0.004672685973501755
35	0x3f86ec64aa561a15	0.01119307179284327
36	0x0000000000000000	0.0
37	0x3f9463cefbf5159e	0.019911989334351447
38	0x3f97621b94277de4	0.022835188787096686
39	0x3f7f4e47c7cad811	0.007643013374652356
40	0xbf49076887e31285	-0.000763822594102751
41	0xbf74532d1c98c9c8	-0.00496213552246378
42	0x3fa1d1adaf49241a	0.03480284466474633
43	0xbf6cf3cbec1df071	-0.003534220014385574
44	0xbf8d460625ded41d	-0.014293716459954859
45	0x3f7e093c7214a565	0.007333026996357493
46	0xbf788f7a8a872469	-0.005996206928508754
47	0xbf7daa24c77864fd	-0.007242339771914572
48	0xbf73e8891502dde9	-0.00486043498693032
49	0x3f8c54c3e8f32fc7	0.013833551928108435
50	0x3f61bde6bdba2fe1	0.0021657473242324564
51	0x3f57881ac71dd9cd	0.0014362584592767403
52	0xbf844113a54df82e	-0.00988974903316028
53	0x3f948a135b8d7d5b	0.020057966673787102
54	0xbf57d0bc0de82c3e	-0.0014535747974402514
55	0x3f7434aecce5ea79	0.00493305474662497
56	0x3f7feb8754318e63	0.007792976978723584
57	0xbf6984308a056ac1	-0.003114790728586087
58	0x3f62c48ff7730d21	0.0022909938666956374
59	0xbf64ac8aa5cb5c08	-0.0025236804925543622
60	0x3f2f12f1443c224f	0.00023707575939392814
61	0x3f7b65c6ce82f44d	0.006688858593574554
62	0xbf78e87b63b0a2c1	-0.006081087102793149
63	0x3f3a0a19771416c8	0.0003973304911400852
64	0xbf7a0b1d76ed41a2	-0.006358256431511585
65	0x3f8efb8cd2cf7281	0.015128231223507928
66	0x0000000000000000	0.0
67	0x8000000000000000	-0.0
68	0x3f69fea6ded5db78	0.0031731852711191465
69	0xbf80317afd05c5fa	-0.007906876417766096
70	0xbf887c8523731530	-0.011956253189405602
71	0x3f814177ad0f4f94	0.008425650566927158
72	0x3f9dc277b64e35f6	0.029062147619290678
73	0x3f68a38d65843b61	0.003007675328383128
74	0x3f6c92e2b8e187d6	0.003488009278087549
75	0xbf8d9c8c67eb84d9	-0.01445874874247226
76	0xbf7904647468b002	-0.006107704545268435
77	0x3f62b5f570534d2c	0.0022840303159711497
78	0xbf698eac43148000	-0.0031197895520023167
79	0x3f669f1fd111cb85	0.0027614232463348287
80	0xbf8fa0f3a08fbf10	-0.015443709695289992
81	0xbf7114722ccbc497	-0.0041698894462892854
82	0xbf74e7cdcabf46ec	-0.005103877901960745
83	0x0000000000000000	0.0
84	0x3fa7280ff6649497	0.04522752649999367
85	0xbf92356a3ac183d3	-0.01778188689820921
86	0xbf835427759a88d4	-0.00943785503051623
87	0x3f67617b3b64f13d	0.0028540999293495115
88	0x3f76a0f95e1f5133	0.005524610607569524
89	0xbf7d7b12e019b7fe	-0.007197450382234292
90	0xbf629f41251b7062	-0.0022732040750792918
91	0xbf393470d09009e2	-0.00038459543480953544
92	0xbf80a066242e05ff	-0.00811843679344104
93	0x8000000000000000	-0.0
94	0x8000000000000000	-0.0
95	0x3f4182c4740021e4	0.0005343875163826253
96	0x0000000000000000	0.0
97	0x3f649cec32a24131	0.0025162327993443413
98	0xbf9710a9035502dd	-0.02252449114644405
99	0xbf873f0178af9118	-0.01135064267686707
100	0xbf80b39439a0ec78	-0.008155019768415026
101	0xbf0e0cf3267aefa7	-5.731694255703352e-05
102	0x3f72bb6e39011e28	0.004573278958623507
103	0x8000000000000000	-0.0
104	0x8000000000000000	-0.0
105	0xbf989337954e9aa8	-0.023999088752726522
106	0xbf76cba8e0894388	-0.005565318752432165
107	0x3f879358899d2706	0.011511508655206903
108	0x8000000000000000	-0.0
109	0xbf6100168d23b230	-0.0020752373176178493
110	0x0000000000000000	0.0
111	0xbf8a11ae5b7784c4	-0.012729036489817942
112	0xbf949217930c2508	-0.020088547086776237
113	0x3f6a091d5ff01d37	0.003178174374173583
114	0x3f816d787ecf5d5f	0.008509580011305471
115	0xbf82363fb6e0e488	-0.008892534035213964
116	0xbf80c449120a5802	-0.008186884749459725
117	0xbf538fed6d27b50a	-0.0011939829461156703
118	0x8000000000000000	-0.0
119	0x3fa405c0cd1f5fcc	0.039106392897963
120	0xbf81a3e660a41d44	-0.008613395523311092
121	0xbf4a6ee427d0640a	-0.0008066762962953844
122	0xbfa4d9864344a29b	-0.04072207995551943
123	0xbf6fb53fa5990fda	-0.003870605764662455
124	0xbf72468d7d8d2942	-0.004461815545094007
125	0x3f93c44e54f199f6	0.019303535399012937
126	0xbf78d1163502aa3a	-0.006058775659918464
127	0x3f52634bd4f50dda	0.0011223068757580863
128	0x3f7409db6dcc5fa2	0.0048922130051990715
129	0x3f58e4d8c6bbae14	0.00151940507469817
130	0x0000000000000000	0.0
131	0x3f7d062a04e4899c	0.007085956704289489
132	0xbf83a7d1fe3520ea	-0.0095974355414374
133	0x3f64899aeb48711b	0.0025070214999357693
134	0xbf3ec8dc63f3e121	-0.00046973591447809117
135	0x3f907d31915bacf3	0.01610257577605707
136	0x3f45668d88291a44	0.0006530943940753005
137	0x8000000000000000	-0.0
138	0x0000000000000000	0.0
139	0x0000000000000000	0.0
140	0x8000000000000000	-0.0
141	0x3f7c304e85bacc3a	0.006882006385853729
142	0x3f814c82ea96053c	0.008446715148923027
143	0xbf9673e38bd0ccea	-0.02192645588747847
144	0x3f73afb995892f95	0.004806256235109792
145	0xbf8db280b7cf1000	-0.014500623330498286
146	0x3f6836cc170bced0	0.0029558168538360366
147	0xbf73d822e924ecbe	-0.004844795579909076
148	0xbf9735e026d19963	-0.022666456574733995
149	0xbf6c6f009c2bf7ea	-0.003470898810859592
150	0xbf742add5f8586e0	-0.004923691500467092
151	0x3f8c54de56473e29	0.013833748825077557
152	0x3f78093bdfd7e357	0.005868181118324176
153	0xbf61a82ecd83d576	-0.0021553911320732434
154	0x3f6babb3d32c6a51	0.003377772541523862
155	0xbf7a7c3ca3accd98	-0.006466137764437184
156	0xbf2e5dae6f01203c	-0.00023167375866450953
157	0x3f815e14d6725583	0.008480227274314306
158	0x3f812af4d65be5f2	0.00838271407291111
159	0xbf4a2123398b5a83	-0.0007974073406227942
160	0x3f34ae2af86ae3bd	0.0003155569942623856
161	0xbf939d7c0bae4b15	-0.019155443394605138
162	0xbf915017256c22fc	-0.01690708318622834
163	0xbf5b8d374c25b299	-0.0016816177381670293
164	0x8000000000000000	-0.0
165	0x3f40e3795c7115ce	0.0005153982718943352
166	0x3f97b53eb6ceea21	0.023152332217913355
167	0x0000000000000000	0.0
168	0x3f72e0d40b5a66ec	0.004608944223628102
169	0xbf7ed53f1e681aae	-0.007527586515158431
170	0xbf828a96aa58ffed	-0.009053399156186937
171	0x3f7c459300a7a66e	0.006902288655035711
172	0xbf81925fedf9b2ea	-0.008579968881542627
173	0xbf93e9115ebf84ac	-0.019443770797697255
174	0xbf9b046a02d61663	-0.02638402597724222
175	0xbf8c0f41a95531b0	-0.013700974445463782
176	0x3f875962f465f89c	0.011400960048146218
177	0xbf7c04bed4481793	-0.006840463091526322
178	0xbf729030758a5ac6	-0.0045320408759354554
179	0x3f5b9a9be686bc53	0.0016848108735805403
180	0x3f861b162501c183	0.01079385090290042
181	0xbf62de07fce932b6	-0.0023031383528063455
182	0x3f885b371674d1f0	0.011892729161083943
183	0xbf765cf1e1d03cbb	-0.005459732868089147
184	0x3f886d37f40cb70f	0.011927067885689561
185	0xbf543468a7876ac0	-0.0012331983581278932
186	0xbf8f450ee562ecfe	-0.01526843678981615
187	0x3f860a27c250ed2a	0.010761557214314783
188	0xbf887d18a3873a78	-0.011957352152333942
189	0x3f6960ab1d2e5ce3	0.0030978529043285004
190	0xbf63738eceddede0	-0.002374438211459426
191	0xbf91efe59564f535	-0.017516696208294397
192	0x3f6606af530fcfee	0.0026887344652042266
193	0x3f767a5080c7176f	0.005487741913787632
194	0xbfad5cc7fc3a8409	-0.05734848932230114
195	0xbf74a58a9c9455e8	-0.005040685130798896
196	0xbf783fad2d8483d4	-0.005920101619524016
197	0x3f6b23aa2f36008a	0.0033129047312173187
198	0x3f764be50840e3b7	0.00544347253531268
199	0x3f8a246c50a02f7e	0.012764784060003139
200	0xbf7b70518d99cbfb	-0.0066989122075140585
201	0xbf989a5c131f9cb0	-0.024026335398869392
202	0x3f84aaf4e38d8d09	0.010091698831905764
203	0xbf66d1ab5aba2282	-0.002785525013511426
204	0xbf61d45479f99940	-0.002176442139716489
205	0x8000000000000000	-0.0
206	0xbf7637c30db9e856	-0.005424272468753063
207	0x0000000000000000	0.0
208	0x8000000000000000	-0.0
209	0xbf8172df05e8fe82	-0.008519880645621262
210	0x3f4aae750500568d	0.0008142539390998002
211	0x3f6b813dd3db51bf	0.003357525593722793
212	0x3f902c0a8e33cae7	0.01579300396856356
213	0x3f97d380b37e4979	0.02326775641956533
214	0x3f6c55ade48824d0	0.003458823808845858
215	0x3f6227ca6087a896	0.002216239230837645
216	0xbf8069fc2b75bb46	-0.008014650417604973
217	0x3fa33c5e59aa124b	0.03756995052848263
218	0x3f9574fc1ba0805b	0.020954074083533985
219	0x8000000000000000	-0.0
220	0x3f794435cabf1003	0.006168565869248968
221	0x3f8f2a43006ef91f	0.015217326594094303
222	0xbf8471ccecf07d0d	-0.009982682209793948
223	0x3f7c34bee1b010cb	0.00688623965379893
224	0xbfa3363b3d0c7f57	-0.037523127748726175
225	0x3f695ff4a14cd0f9	0.0030975130015581357
226	0x3f9bcb0debfa8fd9	0.02714177849578889
227	0x3f92f5b0904704ff	0.018515356832499382
228	0x3f8a461f79eb9948	0.012829061420643342
229	0x3f967adce9761102	0.02195305991109909
230	0x3fa57a40ab62f41a	0.0419483384334642
231	0x3f915a9ff1212dc7	0.01694726857412634
232	0xbf87cf67fec9d51f	-0.011626064742112306
233	0x3f7d4793f94b522f	0.007148340246847114
234	0xbf96a4dd28f07ae5	-0.02211328089117161
235	0x0000000000000000	0.0
236	0xbf7f87e75d12884e	-0.007697967304155352
237	0xbf8758a6e27c65d8	-0.011399558817674668
238	0xbf87ec769c314296	-0.011681486741651963
239	0xbf92597968895c5b	-0.017919442181974037
240	0x3f6d5a3307cbe586	0.0035830494583676846
241	0xbf7e97829690c3cf	-0.007468710050532359
242	0x3fa192431b99c304	0.03431901657029893
243	0x8000000000000000	-0.0
244	0x3f807f270611d1b6	0.008055024025659257
245	0x3f8b2fbae506848a	0.01327463160925137
246	0x0000000000000000	0.0
247	0x3f967d1053feda4f	0.021961455465964893
248	0x3f89422f5c5b7374	0.012333269125002856
249	0x3f90a9a61da76c94	0.01627215915673881
250	0xbf9dea169cb9a7e7	-0.029213288608310874
251	0xbf840c2965955301	-0.0097888216138613
252	0x3f9046e57daeae95	0.015895448490182835
253	0x3f677e16aaaf46b4	0.00286774088952132
254	0x0000000000000000	0.0
255	0x3f8bb555f9b87e08	0.013529464419717932
