results/main/GeneLasso/M--GeneLasso__H--0.0001__Trn--Microarray__Tst--Microarray__S--Val__GS--GPL96-570/betas__ModelInds--176.npy (npy, 93552 bytes, 1 tensors)

array f8 [11678]
-0.0027223858402030993 -0.0 0.003094212703899297 0.0011787580364398774 -0.0013675462800888912 -0.0 -0.0027562678368040576 0.0
0.002629209899077633 0.002389063102329741 0.00320006320950648 0.0008801894280453919 -0.0043914568843989735 0.0006334869697817061 -0.0 -0.00018018812941665243
-0.00025670549956796786 -1.3415087035805576e-05 0.0 -0.00033285551168847724 0.006170743383824348 0.0 0.00664977516932128 -0.0017525619970240765
-0.0 0.0 -0.003458877914963043 0.004760685225172793 -0.0 -5.2851009331301884e-05 0.0029778393030114917 0.002946612335686293
0.0 0.0 8.659402283780615e-05 -0.002083181535954327 -1.2136612963950413e-07 0.0025446170959741487 -0.004197827173879284 -0.0008458515414625242
-0.0 0.0 -0.0004334773129714962 0.0 0.002453563589534395 0.002450190336776494 0.00019098900922311004 0.006084929734137875
-0.004246783046435327 -0.0 -0.0030637111313488014 0.0024678948735825934 0.00417907307129596 0.0 0.001822174840548871 0.0
0.002212316040802639 -0.0009485352312020559 0.0013668728281042261 0.003340448170251116 -0.0 0.0 0.0 0.00042243581279016767
-0.0 0.0 -0.001303801247102143 0.0039440262592883284 0.0032081852078276432 -0.0011150739203245959 0.005145080950091277 0.0
-0.0 -0.003921006186263352 -0.0 0.0 0.0 -0.0028407493168013482 0.004037139888529599 0.0005965393190453708
-0.005748359775342895 0.0 -0.0022812328502441804 0.0003242967045683127 -0.0029439105753904338 0.0015229814838694465 0.00042562109922494694 -0.00298835304842792
-0.0 -0.0037432134706774866 0.0 -0.0021038504286054554 -0.0003984089715308766 -0.0013557079727031607 -0.003123952332021009 -0.0
-0.0 -0.0042219043159242966 -0.009117758089996255 0.0029729665977757725 -0.0 0.0026711337770742205 0.002477037439246427 -0.0
0.005357008313034174 0.0056847825257345715 0.0008070546897018078 -0.0008630391125200522 0.0 -0.0002866200783322934 0.006304579498076213 -0.0015511269595952842
0.0 0.000859379937274426 -0.0013721203966855083 0.0 0.006334285288589031 0.0 0.0 0.0016750315377359807
-0.00237536465783279 -0.001929107259174297 0.0 -0.0030843041775358857 -0.002497447127584143 0.004530991257514447 -0.007278038123771751 -0.0
-0.0 0.0 0.003200351118157893 -0.008690047396347055 -0.0 -0.0 0.0032892182807424757 0.0
0.0005612721769654438 0.0025981735786445503 0.004981873100873147 0.0 9.009231673107623e-05 0.0013545121824775623 0.0 0.0
0.0046898120849234995 -0.0016175819863831278 -0.0020982851214193304 -0.0 -2.504894200498788e-05 0.0043850981019251225 -0.004374806182222568 0.0
-0.0 0.0007978108882371097 0.0017911296596219994 -0.004417074505191796 0.002210517683156236 0.0 -0.0 -0.002452084566848705
0.0021920988659779005 0.0006371869177996256 0.0 0.000921899724060312 -0.0 0.0 -0.001400896147968727 0.0
-0.0 -0.0 0.0 0.0013891570945094506 0.0020918575204254375 0.004686750713064423 0.0026615408121109874 -0.0
0.002281398100487259 0.00048716818533587876 -0.004727653930682809 -0.0023661018060971016 -0.0001449853357730607 -0.0 -0.0017723093167540647 0.0012085427734215678
-0.0025443100493151454 0.0033603472280801135 0.0 0.0015838093393443506 -0.0 0.0 0.004011878953911572 -0.0021564770246083123
-0.001378195822042788 -0.0016865163043520927 0.0 -0.007720210776903316 0.0008402829014672965 -0.0 -0.0003994969443292822 -0.001959357591992091
-0.0010890426768013005 0.0 -2.155629937028848e-06 -0.0007156915323165271 0.001797362550347795 0.0 -0.004513141189379585 0.008204846663611974
-0.0 -0.003817481645232056 -0.0 0.0034545948810590825 -0.00023427883882308926 0.0005450870758149644 -0.0038312440011558546 0.0
0.0015723438926249307 -0.0015943860600307325 0.00045455932361161954 0.0034054748240571696 -0.006586988469569563 0.006004315607521773 -0.003427092275833262 0.0
0.00033054119703396483 -0.0 -0.0011837482195146266 0.0018629404123326027 -0.003941698608988383 0.0035190710570300278 0.0 -0.0015864856554470073
-0.0012699454263627253 -0.0010304659822915195 0.00038954324385573856 0.0016894656419518936 0.001226355442885209 -0.0 5.48056580032706e-05 0.00022619753604989404
0.0 0.0 0.0017353571341222924 -0.0004851742995412628 -0.0024000026052135625 0.0034878058172929647 0.0002059952545314717 0.007004752295185286
0.005438245029254225 -0.002838937230145196 0.008678739719581911 0.0 0.004497136354980823 0.00315959422318659 0.003856838504632367 0.001123495098556517
00000000: c912 d3c4 414d 66bf 0000 0000 0000 0080
00000010: dcfb d7cb 0859 693f 709a d9cd 1150 533f
00000020: f4b0 1ea3 e767 56bf 0000 0000 0000 0080
00000030: 1398 fa06 5094 66bf 0000 0000 0000 0000
00000040: b2c9 fc50 da89 653f a511 907c 3a92 633f
00000050: d50e 8fda 0437 6a3f 6a05 6467 90d7 4c3f
00000060: d160 34bb c6fc 71bf a6e7 a8e8 12c2 443f
00000070: 0000 0000 0000 0080 862d f63e 1c9e 27bf
00000080: 1d64 b0b9 cdd2 30bf 8b31 df85 2b22 ecbe
00000090: 0000 0000 0000 0000 1287 7889 63d0 35bf
000000a0: 4a96 6850 7e46 793f 0000 0000 0000 0000
000000b0: e53c 0c6e cb3c 7b3f 4b15 881d c7b6 5cbf
000000c0: 0000 0000 0000 0080 0000 0000 0000 0000
000000d0: 32e7 d1f0 ca55 6cbf 6b24 94b5 f07f 733f
000000e0: 0000 0000 0000 0080 8a4d 65da 8ab5 0bbf
000000f0: 8be7 694d fb64 683f 3154 b473 7e23 683f
00000100: 0000 0000 0000 0000 0000 0000 0000 0000
00000110: c936 06fc 39b3 163f 029a 3192 bf10 61bf
00000120: b424 1cc4 1b4a 80be 8a5b a8e6 72d8 643f
00000130: 7c30 d1a6 bd31 71bf 12eb 9a5a 84b7 4bbf
00000140: 0000 0000 0000 0080 0000 0000 0000 0000
00000150: e83f fde1 8a68 3cbf 0000 0000 0000 0000
00000160: d6c9 05ec 7e19 643f d19a b1eb 6b12 643f
00000170: e021 d618 8708 293f fc26 4ee3 82ec 783f
00000180: 7a29 c324 1365 71bf 0000 0000 0000 0080
00000190: 9b12 a263 1119 69bf 4040 b4f8 8c37 643f
000001a0: 8f72 b362 131e 713f 0000 0000 0000 0000
000001b0: 278f 4156 c1da 5d3f 0000 0000 0000 0000
000001c0: 12b1 6521 901f 623f eeea 07e6 e314 4fbf
000001d0: 3244 0c86 1465 563f c392 a574 6d5d 6b3f
000001e0: 0000 0000 0000 0080 0000 0000 0000 0000
000001f0: 0000 0000 0000 0000 07dc 2600 4caf 3b3f
00000200: 0000 0000 0000 0080 0000 0000 0000 0000
00000210: 99d9 dfed 895c 55bf 5e76 c57c 9c27 703f
00000220: 3918 8251 0d48 6a3f a281 4e81 f544 52bf
00000230: 1d96 a726 0213 753f 0000 0000 0000 0000
00000240: 0000 0000 0000 0080 0b0d 6615 790f 70bf
00000250: 0000 0000 0000 0080 0000 0000 0000 0000
00000260: 0000 0000 0000 0000 166f 2dad 7b45 67bf
00000270: 7858 a67c 3f89 703f a7a4 db6e 228c 433f
00000280: cf11 da93 978b 77bf 0000 0000 0000 0000
00000290: 0d42 908f 17b0 62bf 54b5 85bd cb40 353f
000002a0: d7c8 98f4 d31d 68bf 6bba 99ea d8f3 583f
000002b0: dfe7 9fb3 bce4 3b3f efae 94d3 077b 68bf
000002c0: 0000 0000 0000 0080 b33e 086e 16aa 6ebf
000002d0: 0000 0000 0000 0000 934d 2b19 183c 61bf
000002e0: 4bf8 ce80 311c 3abf a9c4 f659 4036 56bf
000002f0: 049a 3523 6797 69bf 0000 0000 0000 0080
00000300: 0000 0000 0000 0080 8d76 6bcf fc4a 71bf
00000310: bb98 79c6 54ac 82bf cdcf e749 c35a 683f
00000320: 0000 0000 0000 0080 69a0 e706 c6e1 653f
00000330: f469 5c59 b94a 643f 0000 0000 0000 0080
00000340: 5b61 24f8 3af1 753f 86c4 8630 ed48 773f
00000350: 6205 cabf 1072 4a3f c47b b861 b247 4cbf
00000360: 0000 0000 0000 0000 8163 e1dc afc8 32bf
00000370: b4f7 25ac d4d2 793f 9cd6 0ee4 e569 59bf
00000380: 0000 0000 0000 0000 48f6 da5c 0029 4c3f
00000390: 4051 b70e 177b 56bf 0000 0000 0000 0000
000003a0: fa43 87c2 faf1 793f 0000 0000 0000 0000
000003b0: 0000 0000 0000 0000 5e76 286b 9771 5b3f
000003c0: 99d9 af30 8075 63bf 551c ac25 439b 5fbf
000003d0: 0000 0000 0000 0000 c28f 5932 4144 69bf
000003e0: ed1a 91b7 8675 64bf 0ad1 4fb4 168f 723f
000003f0: b9be 877b 93cf 7dbf 0000 0000 0000 0080
00000400: 0000 0000 0000 0080 0000 0000 0000 0000
00000410: 462d 6c6c 9f37 6a3f 46aa f16a 16cc 81bf
00000420: 0000 0000 0000 0080 0000 0000 0000 0080
00000430: 1308 3f9e fdf1 6a3f 0000 0000 0000 0000
00000440: 00d8 75d2 4a64 423f ee66 96d1 c348 653f
00000450: 673b a860 df67 743f 0000 0000 0000 0000
00000460: 41c1 4637 fe9d 173f fd4a a661 3c31 563f
00000470: 0000 0000 0000 0000 0000 0000 0000 0000
00000480: 1f53 77d8 9f35 733f 2031 ba6e a180 5abf
00000490: 4e7a 2c3f 6c30 61bf 0000 0000 0000 0080
000004a0: 47b0 f72f 0644 fabe 0d15 00cf 1bf6 713f
000004b0: b3eb a917 51eb 71bf 0000 0000 0000 0000
000004c0: 0000 0000 0000 0080 2c06 31d6 8524 4a3f
000004d0: 85f7 e6d3 8a58 5d3f 7e61 b368 a317 72bf
000004e0: a21c 01a5 ca1b 623f 0000 0000 0000 0000
000004f0: 0000 0000 0000 0080 8b49 b1e0 6416 64bf
00000500: b812 0c1e 2af5 613f fdfd 977c 1ce1 443f
00000510: 0000 0000 0000 0000 e0b7 1f95 7435 4e3f
00000520: 0000 0000 0000 0080 0000 0000 0000 0000
00000530: e3e2 ffc8 c8f3 56bf 0000 0000 0000 0000
00000540: 0000 0000 0000 0080 0000 0000 0000 0080
00000550: 0000 0000 0000 0000 5f1f 8e12 8cc2 563f
00000560: 5778 6b74 f122 613f 5807 9810 6a32 733f
00000570: d2ec d6d7 a7cd 653f 0000 0000 0000 0080
00000580: 5b4c 6247 70b0 623f ca96 756c 53ed 3f3f
00000590: c22f 4ef0 4d5d 73bf 21c7 093c 1362 63bf
000005a0: c237 148d e600 23bf 0000 0000 0000 0080
000005b0: 755b 72a3 9a09 5dbf b7aa 02ec fecc 533f
000005c0: 6575 7c0e ced7 64bf 2872 54ae 2887 6b3f
000005d0: 0000 0000 0000 0000 8484 3254 faf2 593f
000005e0: 0000 0000 0000 0080 0000 0000 0000 0000
000005f0: b1e3 708e c26e 703f 10d6 72c9 75aa 61bf
00000600: e60d ec7e 9294 56bf 6769 c417 c3a1 5bbf
00000610: 0000 0000 0000 0000 7663 e14c 3a9f 7fbf
00000620: 536f 64ca cd88 4b3f 0000 0000 0000 0080
00000630: 1d10 8d4f 722e 3abf 44ba eb18 120d 60bf
00000640: 9e63 92ab c6d7 51bf 0000 0000 0000 0000
00000650: e636 2917 2e15 c2be 7267 d7dc a773 47bf
00000660: 0ef0 db57 af72 5d3f 0000 0000 0000 0000
00000670: 5648 f81c 5f7c 72bf 7915 b6e0 b3cd 803f
00000680: 0000 0000 0000 0080 9721 38da d645 6fbf
00000690: 0000 0000 0000 0080 6a5b 1f81 cf4c 6c3f
000006a0: a20e dbe6 17b5 2ebf fa25 0195 85dc 413f
000006b0: e9c5 0376 b362 6fbf 0000 0000 0000 0000
000006c0: a76f 3366 e3c2 593f 7bbc 0aff 561f 5abf
000006d0: 3131 d36d 3dca 3d3f f3c6 e45f cce5 6b3f
000006e0: 3d17 e540 f5fa 7abf e9e9 b432 fb97 783f
000006f0: f8ad d727 2213 6cbf 0000 0000 0000 0000
00000700: 300c 99a1 8fa9 353f 0000 0000 0000 0080
00000710: 3eca edf8 ff64 53bf 31aa 4d09 bd85 5e3f
00000720: e256 dca9 2b25 70bf 7695 45e3 06d4 6c3f
00000730: 0000 0000 0000 0000 1eaf 5d00 34fe 59bf
00000740: 2450 bb84 89ce 54bf 3da8 636c 16e2 50bf
00000750: 6016 247e 7387 393f 3777 83eb 21ae 5b3f
00000760: 6d46 4f21 b517 543f 0000 0000 0000 0080
00000770: 83a9 f011 e4bb 0c3f ab4d 1f0a eea5 2d3f
00000780: 0000 0000 0000 0000 0000 0000 0000 0000
00000790: 8def d388 9d6e 5c3f 5cfc d7bf dfcb 3fbf
000007a0: 0a00 6496 2ba9 63bf 7d3a 717d 7592 6c3f
000007b0: d880 3fc3 0d00 2b3f 15f3 63e0 03b1 7c3f
000007c0: c8c2 c5c8 6946 763f 4444 e2d1 ae41 67bf
000007d0: 4ff9 20ba 28c6 813f 0000 0000 0000 0000
000007e0: f2ed 1fd9 966b 723f 3252 6e3b 26e2 693f
000007f0: 0585 c967 6098 6f3f d62e 27ad 4768 523f
