results/main/GeneLasso/M--GeneLasso__H--0.0001__Trn--Microarray__Tst--Microarray__S--Val__GS--GPL96-570/betas__ModelInds--228.npy (npy, 93552 bytes, 1 tensors)

array f8 [11678]
0	0x3f979098f6361ff8	0.023012533214142622
1	0x3f46ee0a31569213	0.0006997632760215609
2	0x3f76bddc74c20bb6	0.005552159458718833
3	0x3fa01a6263332b44	0.031451296433792325
4	0x8000000000000000	-0.0
5	0xbf6883f013e2deba	-0.0029926003472516534
6	0xbf7855d8fa6f69ec	-0.005941245623910945
7	0x3f7d2c00f0220b6c	0.007122043289316742
8	0xbf40ff69e52e0db9	-0.0005187289301464205
9	0xbf74ed32eb7ef528	-0.005109023004419989
10	0x3f7d8e00eeffa655	0.007215503355817517
11	0x0000000000000000	0.0
12	0x8000000000000000	-0.0
13	0xbf49c8aa3da8fdf8	-0.000786860585613113
14	0xbf7293ef89ad9c11	-0.004535613722374003
15	0x3f70159f06ddfb28	0.0039268695817316415
16	0x0000000000000000	0.0
17	0xbf73596ff888ce53	-0.00472396601303478
18	0xbf8df1bace4178e1	-0.01462121908133124
19	0xbf8c49200f8c26ab	-0.0138113503212652
20	0x3f562e6a98c7f531	0.0013538399681459307
21	0x0000000000000000	0.0
22	0xbf86b5070cc9825f	-0.011087470128758157
23	0xbf7165a242b72ce0	-0.004247316198824097
24	0xbf9ae69523468151	-0.02627022769741078
25	0xbf64cca3b54c72dc	-0.002538985960553892
26	0x3f82eb3e5f22054c	0.009237754133439545
27	0x3f661f74ce944220	0.0027005463968026305
28	0x3f90a751d26226df	0.016263273683342013
29	0xbf82357ce2fe5fc3	-0.008891082455917748
30	0x3f265472faec5675	0.00017036346022141253
31	0xbf7c947e89c2f27c	-0.006977552690099583
32	0x3f9e1eca41bc51c0	0.029414329778846726
33	0x3f733be29f0a26f2	0.004695782889607024
34	0x3f9a3875e60c8c12	0.025606004873349582
35	0x3f77093f8c699e42	0.005624054180408291
36	0x3f9b599fb32f689b	0.02670907527122122
37	0x3f849f53e52397c0	0.010069518499630337
38	0xbf9214a2174cd208	-0.01765683428966905
39	0xbf8880cbff6d7678	-0.011964410526782418
40	0xbf983394ece1f37e	-0.02363426872078688
41	0x3f7e29b09a3ad18c	0.007363977292403578
42	0x8000000000000000	-0.0
43	0xbf830c234aa3f273	-0.00930049487623672
44	0x3f7c8ddc50754041	0.006971226313297108
45	0x3f71a0469be5a02a	0.004303241554545459
46	0x3f82db65ddad1ea5	0.00920753081085419
47	0x0000000000000000	0.0
48	0xbf6d5c362cf36208	-0.00358400899095224
49	0xbf5cb528c6fa6085	-0.0017521761145982428
50	0xbf8bbf309160c8b2	-0.013548259197794319
51	0xbef873da5bc307f9	-2.3319769511649634e-05
52	0x3f8400e65b656aab	0.009767341293515605
53	0x3f8c8c8e1d338dc1	0.013939962640910577
54	0xbf6f6cedfe28f350	-0.0038361213967434207
55	0x3f70a78f02c4320e	0.004066046367608779
56	0x3f7c0b98430435f9	0.006846995136823513
57	0xbf7b82d3c828f639	-0.006716563485097243
58	0xbf7989538a9864a2	-0.006234480222269275
59	0xbf87a035606f2dbc	-0.01153604221862891
60	0x3f8728c0e5c1df0e	0.0113081998936049
61	0x3f61bda1cc498969	0.0021656189076548105
62	0x3fa2ab9c59e7d0e5	0.03646553609351758
63	0x3f8f2df6a2eb3239	0.01522438702286265
64	0x0000000000000000	0.0
65	0x3f3ae3b29da4bf80	0.0004103003572195549
66	0x8000000000000000	-0.0
67	0xbf836626c1b8909a	-0.00947218207063143
68	0xbf6b23a3aca3cca7	-0.0033128926053166033
69	0x3f6009ec99f6d466	0.001957857238915883
70	0x0000000000000000	0.0
71	0x8000000000000000	-0.0
72	0x3f8247ec60d1c222	0.008926245407765047
73	0xbf96870f8fa48e4e	-0.021999591009388468
74	0xbf28da0063b53b07	-0.0001896024203724355
75	0xbf69e30c89fb5ea6	-0.0031600232031044504
76	0xbf7bba7b79a88955	-0.006769640278920204
77	0x3f8994e87fb7a8d8	0.012491051099420877
78	0x3f86278ea0456015	0.010817636743624385
79	0xbf853ccf789ce254	-0.010369892948447625
80	0x3f604269d01cb460	0.0019847933443970928
81	0xbf7b6875ebf3b408	-0.0066914182964241745
82	0x3f98e22779aa29ff	0.024300209809135605
83	0xbf6da55a894eb06d	-0.00361888583070962
84	0xbf91c42a33186bad	-0.01734987198697595
85	0xbf85cde19109ff2c	-0.010646593321552787
86	0x3f8da8eb4f019b30	0.014482344006137987
87	0x0000000000000000	0.0
88	0x3f82cdd1b4213dfe	0.009181631383539997
89	0x3f8e4b989cd88af0	0.014792625700527279
90	0xbf87abf9e9fc4753	-0.011558487370652825
91	0xbf7c24fcc3f7d6a5	-0.006871211400257292
92	0x3f4f803165d77522	0.0009613267135894258
93	0x3f8b5e506169b522	0.01336348340302124
94	0x8000000000000000	-0.0
95	0x3f7e01077b288d64	0.0073252002935392
96	0xbf4a17b6f0e1a2a5	-0.0007962840334246503
97	0xbf56d0d08e15aff9	-0.001392558733949832
98	0x3f824467cb1cb6f9	0.008919535528174804
99	0x3f9c881c4a3c9b37	0.027862970381785614
100	0x8000000000000000	-0.0
101	0xbf6db7f855d34e7f	-0.003627762822910274
102	0xbf44877957f3a54c	-0.0006265013215884046
103	0xbf92927986ad98b2	-0.018136881680583535
104	0xbf6669a072ec702b	-0.0027359136360143497
105	0x3f780eb604035724	0.005873404501661548
106	0x3f9a13ac6c41362e	0.025465673549027006
107	0x3f7afbdd30bb687a	0.006587852501718778
108	0x3f8247b6f8077272	0.008925847477194913
109	0x3f8e94c9703cdeaa	0.014932225930905336
110	0x3f85a9eb01d820ac	0.010577999109060286
111	0x3f52bccfb83875d3	0.001143648959334488
112	0x3f814fc45a15a18c	0.00845292472759309
113	0xbf8e4e140448f372	-0.014797359829680199
114	0x3f981bdab3627040	0.023543755720865756
115	0xbf96b41059b79909	-0.022171264148618728
116	0x3f82b162b1135ad2	0.009127398518484684
117	0xbf5f8d9f18a6b990	-0.0019258550333734782
118	0xbf76877399ba965e	-0.005500270428148461
119	0x3f8ea75ddef3a04e	0.014967664114422654
120	0x3f70ffa0a31cffab	0.004150035370741915
121	0xbf8f20965efabca6	-0.015198874257605088
122	0x3f6cc269518f1ee0	0.0035106713298523745
123	0xbf9965613cb5608d	-0.024800795870163973
124	0xbf81dd22174c8d83	-0.008722559295683002
125	0x3f5a88ea47bbe91e	0.0016195571797071383
126	0xbf921b35e14760f5	-0.0176819247006685
127	0x3f850d4395f6ff10	0.010279205335677527
128	0x3f93dd736b578a7d	0.019399455477364647
129	0xbf706304900c441e	-0.0040006807546584516
130	0x3f48f6afa62beeef	0.0007618291532191771
131	0xbf820961735d3d48	-0.008806954701553807
132	0x3f561e02940192fa	0.0013499283959614292
133	0x3f65c512647663e6	0.002657447741239316
134	0x3f83dd90e0de8ce6	0.009699947226016591
135	0xbf74aae5b40b2a5c	-0.005045792845246835
136	0x3f757a880bc76e19	0.005243808202489508
137	0xbf71ddce7dc2e995	-0.004361921888796157
138	0xbf82e3e43055c253	-0.009223730778758077
139	0xbf781a692a2de03d	-0.005884562301496085
140	0x3f8cea1f8e16022d	0.014118429683322631
141	0x3f1953e38f464a10	9.661747373560675e-05
142	0x0000000000000000	0.0
143	0x0000000000000000	0.0
144	0x3f6f269ea15ce42b	0.003802594971514602
145	0xbf809def29a266a8	-0.008113735635834132
146	0x3f7618dc3c923158	0.005394802378884421
147	0x3f5a02a42088430e	0.0015875437549121604
148	0x3f61f93e2e939b7a	0.0021940435877811333
149	0x3fb06681f2601398	0.06406414191594789
150	0xbf87e68abcf4881a	-0.011670192614989406
151	0xbf9573b53427e734	-0.020949202831594252
152	0x3f625b4c02417f1a	0.0022407993838412634
153	0x3f649b4a2b9e97c0	0.0025154541626361826
154	0xbf608632cb0ca9e1	-0.002017115788835997
155	0x0000000000000000	0.0
156	0xbf8b206cef73af6e	-0.01324544053792184
157	0xbf8325f9e86ab10c	-0.009349777608200792
158	0xbf8d23f810b12071	-0.014228761681934739
159	0x3f512c281ff743d7	0.0010481254429246434
160	0x8000000000000000	-0.0
161	0x3f7552f326c34d4d	0.005206060228562248
162	0x3f72a74096a6ad90	0.004554035471680776
163	0x0000000000000000	0.0
164	0x3f83af95ed85ffb4	0.009612246810092852
165	0xbf640d45ccb779a6	-0.0024477351450819694
166	0xbf898119f626ef86	-0.012453272652116498
167	0x3f64196c754ffb3b	0.002453529198191443
168	0xbf55aa3dff1fb4b9	-0.0013223271785094816
169	0x3f76bb3fb932386a	0.0055496682354157865
170	0xbf517d684490c71a	-0.0010674970856254296
171	0x3f7e516b6ab90aac	0.007401866528712258
172	0xbf748e9c001505db	-0.0050188153994112595
173	0x3f8da85b85e0c80d	0.014481272719510963
174	0x3f7ec3752765cba5	0.007510621673975236
175	0x0000000000000000	0.0
176	0xbf833ec78e701d31	-0.009397086176262977
177	0x3f7277c08b75b0d2	0.004508735778795807
178	0x3f79d5da7fc3d22d	0.006307462226903965
179	0x3f807a1eaf8e4bb3	0.00804542515996851
180	0xbf916ffc317aa200	-0.017028751869164083
181	0x3f82ddc6386426d5	0.009212063404010188
182	0x3f41d984c2288742	0.0005447290644193597
183	0x3f844b7485f8d6d6	0.009909544313909373
184	0x3f749acb19bf535e	0.005030434953330635
185	0x3f64bb457b2ee338	0.002530704217374693
186	0x3fa6660d8c067388	0.043747351973457305
187	0xbf885ad7b0bf3f56	-0.011892018395797937
188	0xbf94a5cd7595b62f	-0.02016373663120968
189	0xbf818fba1902190e	-0.008574918640317477
190	0x3f92b1dadcb04c60	0.018256587714926886
191	0x0000000000000000	0.0
192	0x8000000000000000	-0.0
193	0x0000000000000000	0.0
194	0xbf916265cad78906	-0.016976919656266375
195	0x3f87a8a53bf1f4c3	0.011552134410744213
196	0xbf53fca1c45a3f55	-0.0012199001079444456
197	0xbf6fa092369f3fc1	-0.003860745976432129
198	0x3f8254b141a66e6b	0.008950600448591936
199	0x3f9757cc3d561fb3	0.022795859569242526
200	0x3f6d44cd684bafc3	0.0035728465903641384
201	0x3f730dcb5e3e6150	0.0046518272464698
202	0x3f81884af9140f2d	0.008560739256160932
203	0x3f7dcdfb724759e4	0.007276518070702374
204	0xbf7a867228c66b8a	-0.006475873884847947
205	0xbf80359f0723fb96	-0.007914774327671553
206	0xbf7e4c6b52d30e87	-0.007397097809363046
207	0xbf76053e8990631d	-0.005376095091400382
208	0xbf7a73793d8bb324	-0.006457780452120674
209	0xbf7059721d896c0a	-0.00399155212707126
210	0xbf7cdba1323d0b8b	-0.007045392678096794
211	0xbf607275822f31af	-0.0020077033127334424
212	0xbf5372dee8455f2b	-0.0011870552853760579
213	0x3f96a25ca4ebdd8d	0.022103736463547064
214	0x3f7ac7587ca7f63f	0.006537767078496125
215	0x3f3934fbe1ffaf70	0.000384627814127062
216	0xbf89f1fdc909376c	-0.01266859311831655
217	0x3f8cc9268960d8eb	0.014055539195493036
218	0x3f87055ab124315d	0.011240681200910424
219	0x3f7805eeed432764	0.00586503344329423
220	0x8000000000000000	-0.0
221	0x3f93b9eef4c95c8a	0.019263967218958324
222	0xbf9358a2980fa129	-0.018892803698606606
223	0xbf84497471a9ef55	-0.009905729025596758
224	0x3f2ece738741a88b	0.0002350345636189004
225	0x3f1c574f311bad43	0.00010811253403246895
226	0x3f8745d2fa5d4f6c	0.011363647714155177
227	0xbf44d3b16dcf0a0e	-0.0006355873443840158
228	0x3f34cc4aebedf756	0.0003173525728284906
229	0xbf9dd0a33885312d	-0.029116201710437984
230	0x3fb4b342cfc5901d	0.08086030552436836
231	0x3f7bda100c18e362	0.006799757656659052
232	0xbf92b499dd24323d	-0.018267063257598293
233	0x3f846dcc1111beb7	0.009975046416200823
234	0x3f5ca61e635a2ec1	0.001748590160249572
235	0x3f84e2e159feb41d	0.010198364790847287
236	0x3f8d3677d90cd954	0.014264046012254873
237	0xbf4629915d386aea	-0.0006763419900751276
238	0xbf6d3b813d29cd66	-0.0035684131810797435
239	0x0000000000000000	0.0
240	0xbf8e5a0d4c6c6a07	-0.014820197958717264
241	0xbf749fdfefcd27cb	-0.005035280945614627
242	0x3f9705fed23fc8f9	0.022483808119383195
243	0x3ef7855de3745df4	2.243133914445017e-05
244	0xbfa163d49fe0e602	-0.033964771763248094
245	0xbf612a41b190c21f	-0.002095344837038007
246	0x3f7f6401ce615aed	0.007663733535159462
247	0x3f95eed15ec00911	0.02141883030709219
248	0x0000000000000000	0.0
249	0x3f8afc37b3bc15cc	0.013176379368370038
250	0xbf9952234290f28c	-0.02472739309108589
251	0x3f49bab813855b9f	0.0007851980981666734
252	0x3f67b7feddae9cd4	0.002895353112268498
253	0xbf9d8cf1bf1c126c	-0.028857972421081277
254	0x3f61c380c8c1dc3c	0.0021684184376300746
255	0x0000000000000000	0.0
